AE-mark-1/checkpoint.pt (torch, 7925 bytes, 16 tensors)

encoder.conv1.weight f4 [3, 3, 3, 3]
000000 9a 09 ea 3d 4c cf 90 bb 7b a5 12 3e de 80 93 bb
       0.114276126 -0.004419243 0.14320938 -0.004501446
000010 2c 06 3b be 3a 88 05 be 83 81 2f 3e 28 c0 94 3b
       -0.18264073 -0.13040248 0.17139249 0.0045395084
000020 79 94 25 be c8 a0 0e 3e 6a 84 75 bd 2e bd de bd
       -0.16169919 0.1392852 -0.059940733 -0.10875927
000030 7d 8e 92 bd d7 79 f7 3d 11 0a 97 bc 6b 28 4a 3d
       -0.07156084 0.12083786 -0.018437417 0.04935495
000040 d8 28 c8 bd 60 8a 03 3e a9 f4 f6 3c 83 a6 27 3e
       -0.09773415 0.12845755 0.03014596 0.16372113
000050 cd 5c 21 be f4 1e 02 be 9f 88 09 3e 25 2e 2b bd
       -0.15758057 -0.1270712 0.13431023 -0.041792054
000060 04 4c 8f bd 7b 52 c5 3c 7a 01 d5 3c eb 4d 17 3d
       -0.06996921 0.024087181 0.02600168 0.036939543
000070 6c 09 0a 3e 6d 0e 12 bd 91 83 49 3e dd be cf ba
       0.13480157 -0.03565829 0.19679095 -0.0015849728
000080 40 6e b1 bd c8 07 03 be 2c 9f 01 be fd 20 09 be
       -0.08663607 -0.12795937 -0.12658376 -0.1339149
000090 84 94 17 3e 61 64 2d 3d 07 db 9a 3c 5d 8e 10 3e
       0.14802748 0.042332057 0.018903269 0.14116807
0000a0 39 41 22 3e e6 a3 fe bd 0b 74 0e 3e 74 a0 18 3d
       0.15845193 -0.12433605 0.13911454 0.037262395
0000b0 1a ff 58 3e 53 e5 0c be 45 3b 22 be 7e a3 24 3e
       0.21191064 -0.13759355 -0.15842922 0.16077992
0000c0 4f 5d 82 3d 5a cd 08 be 41 ae cd 3d 82 c5 20 3e
       0.063654535 -0.13359585 0.10043002 0.15700343
0000d0 cc b0 0e bd 32 c9 76 3d cb be 29 3c 06 eb 0b be
       -0.034836575 0.06025047 0.01036043 -0.13663873
0000e0 3f ef d2 3c 34 d4 18 3e 47 58 22 be 6c 89 aa bd
       0.025748847 0.14924699 -0.15853988 -0.083269924
0000f0 74 e8 d5 3d 5d 1f 41 3e 77 2c 1a be d7 8e ef 3d
       0.104447275 0.1885962 -0.15056024 0.116971664
000100 92 81 f4 3c 6d 33 ff 3d c3 a7 df 3d d4 6b 6a 3c
       0.02984694 0.124609806 0.1092067 0.014307935
000110 99 1c cc 3d 94 f5 09 bd a8 4c b1 bd 55 62 12 be
       0.09966392 -0.033681467 -0.08657199 -0.14295323
000120 67 d3 ce 3c 15 11 26 be ce 74 31 3e f7 22 2f be
       0.025247289 -0.16217454 0.17329714 -0.17103182
000130 e2 ee 04 be 32 a1 46 bd 98 f7 b7 bc 2b bd 93 3d
       -0.12981752 -0.04849357 -0.02245693 0.07213815
000140 c6 d2 33 be
       -0.17560872

encoder.conv1.bias f4 [3]
000000 1f d2 35 bd 1c c5 20 3e 2f 03 4a 3d
       -0.04438984 0.15700191 0.049319442

encoder.conv2.weight f4 [3, 3, 3, 3]
000000 b4 95 17 3e 9e 43 35 3d 82 5c 2b 3e ee 79 4b bd
       0.14803201 0.044253938 0.16734508 -0.049676828
000010 29 36 c1 bd f4 dc 32 be d8 51 4d be fb b1 22 be
       -0.09434158 -0.174671 -0.20050752 -0.15888207
000020 36 47 e0 bd e3 9c ad 3d 3d 3c b9 3d 1b 0f 30 be
       -0.109510824 0.084771894 0.09044693 -0.17193262
000030 17 79 17 be 32 58 33 be 8c 42 cd bb 4c 40 b2 bd
       -0.14792286 -0.17514113 -0.0062640365 -0.0870367
000040 45 05 34 be 06 06 2f bc 5b ce 09 3e 63 8d a7 bd
       -0.17580135 -0.010682588 0.13457625 -0.08181264
000050 af e2 de 3c 66 07 02 be b8 2d 38 3e d2 6a d9 bd
       0.0272077 -0.12698135 0.1798619 -0.106160775
000060 e2 d6 47 3e b8 e1 fc bd e3 1a 34 3c 79 24 3d 3d
       0.19515565 -0.1234774 0.010992738 0.04617736
000070 30 ae 2e 3e ae f2 bb bd d8 45 f2 3d 29 91 c0 3d
       0.17058635 -0.09177147 0.11829728 0.09402687
000080 c3 a8 18 3e 67 a1 a8 bd 21 16 c6 bd 9a b3 92 3d
       0.14908127 -0.0823391 -0.096721895 0.071631625
000090 72 d6 e7 38 23 40 03 bd c8 f9 af 3c 75 6a 2b 3e
       0.00011054882 -0.032043587 0.02148141 0.16739829
0000a0 44 56 3d bd c7 f5 09 3e 4d 5e 1f bc aa 95 14 3e
       -0.046224847 0.13472663 -0.009727073 0.14510217
0000b0 a1 eb 4b be dc 48 c6 3d eb 85 c8 bd 50 0f 56 3e
       -0.19914104 0.096818656 -0.09791168 0.20904279
0000c0 82 4b 9f bd 8f 28 2f 3e 61 96 10 be 07 32 f3 bd
       -0.07778074 0.17105316 -0.14119865 -0.11874776
0000d0 4d 21 0b 3d 57 8c 5b 3d ad 34 8c 3c c6 66 21 3d
       0.033967305 0.053600635 0.017114962 0.039404653
0000e0 44 cf 9e bd da ff 61 bd b5 d0 b8 3d 5e 2d 88 3d
       -0.077543765 -0.05517564 0.09024183 0.06649278
0000f0 fa 06 8a bd 34 a9 15 bd d2 83 f4 3c b4 66 42 bc
       -0.06739612 -0.036538318 0.029848013 -0.011865307
000100 e6 e8 d1 bd 52 cb c7 bd 93 1c e7 ba 4e f0 0b be
       -0.102495 -0.09755577 -0.0017632417 -0.13665888
000110 d7 8e 21 be 2d 36 21 3e 6e 0e 0f be b4 1e 9b 3d
       -0.15777145 0.15743323 -0.13970348 0.075742155
000120 c3 01 30 3e a7 1c 9d bd cb 90 08 be dc ad ff 3b
       0.17188172 -0.076714806 -0.13336484 0.007802708
000130 64 f6 81 3b 64 b0 3c bd 85 51 76 3d ab 4e 7a bd
       0.0039661396 -0.046066657 0.060136337 -0.06111018
000140 50 8c ae 3d
       0.08522856

encoder.conv2.bias f4 [3]
000000 f7 c0 d0 bd 3b 0d 59 be 17 8e 9a 3d
       -0.10193055 -0.21196453 0.07546633

encoder.conv3.weight f4 [3, 3, 3, 3]
000000 5c 77 04 be c6 64 28 be 12 8a 99 bc bb 38 e1 3d
       -0.12936157 -0.16444692 -0.018742595 0.109971486
000010 f6 07 7c bd 64 9d ee 3d be 49 00 3e 41 f4 a8 bd
       -0.06153103 0.11651114 0.1252813 -0.08249713
000020 75 90 05 3d e8 ca 01 bd 04 39 1d be d4 0a 34 3e
       0.032608468 -0.031687647 -0.15353781 0.17582256
000030 71 e9 8f bd 53 dd 94 bc 80 91 36 3e cb 07 23 be
       -0.07026947 -0.018171942 0.17828941 -0.15920942
000040 3f 91 b7 3c e4 81 d7 bd 09 b2 20 3e b2 5e 9e 3d
       0.022408126 -0.105228215 0.15692915 0.077329054
000050 d6 6c 15 bc d2 01 94 3d 3e 04 e2 bb 36 2a 92 bc
       -0.009120187 0.0722691 -0.0068974784 -0.017842393
000060 d5 43 3f be 8d b6 2b 3e 74 65 01 3d 1a e8 d5 bc
       -0.1867822 0.16768856 0.031590894 -0.026111651
000070 37 5a 10 3c e6 65 08 be cf f9 a1 bd c5 4c 8d bd
       0.008810571 -0.13320121 -0.07908975 -0.06899408
000080 0c ac fb bd 8c 71 32 be 4e b5 1b 3d 93 61 4c be
       -0.12288675 -0.17426127 0.038014702 -0.19959097
000090 56 ac d7 bd 8e 48 c7 3d 69 76 17 be 99 67 a5 3d
       -0.10530917 0.097306356 -0.14791264 0.080764
0000a0 74 f9 44 bd 7c 4c 4f 3d 6a da 0c be 19 25 e5 bd
       -0.04808946 0.05061005 -0.13755193 -0.111887164
0000b0 5d 68 b3 bd b3 d5 40 3e ff 06 21 be 32 22 05 bd
       -0.0876014 0.1883152 -0.15725325 -0.032503314
0000c0 e6 73 00 3c 3e 3f dc bd 33 53 01 bd 8f d6 33 3e
       0.007840132 -0.1075425 -0.031573486 0.17562316
0000d0 13 04 87 bd 69 e7 81 bd 8b b0 31 be 11 13 52 bc
       -0.06592574 -0.06342966 -0.17352502 -0.012821929
0000e0 66 b0 c5 3d 62 ab 91 3d 0d 7e 9c bd 59 41 b3 bd
       0.09652786 0.07112767 -0.0764123 -0.087526985
0000f0 c0 2e a2 3d 88 b9 00 3e ea b8 27 3e 5d fd 0c be
       0.07919073 0.12570775 0.16379133 -0.13768525
000100 b9 0a b5 bd 08 58 21 3e 92 eb f6 bd 74 b4 d5 3d
       -0.08839936 0.15756238 -0.1205665 0.10434809
000110 5a d8 24 3d 30 9c f2 3d 4d 6e 04 3e 29 4c 79 3d
       0.04024539 0.11846197 0.12932701 0.060863648
000120 9f c8 06 3e 08 01 be 3b ce ee 47 3e 7b b7 0d be
       0.13162468 0.005798463 0.1952469 -0.13839523
000130 24 25 8f 3d 9d 42 49 3e b0 27 f0 3d 88 98 74 bd
       0.06989506 0.19654317 0.1172632 -0.059715778
000140 36 55 d8 3c
       0.02640782

encoder.conv3.bias f4 [3]
000000 b5 e3 54 3d 73 b1 45 3e eb d8 0f be
       0.05197497 0.19305973 -0.14047591

encoder.conv4.weight f4 [3, 3, 3, 3]
000000 44 77 95 3b d8 bd 99 bd d6 97 26 3e 1a e1 8c bd
       0.0045613367 -0.07506913 0.16268858 -0.06878872
000010 5c 68 ff 3c 47 92 db 3d e8 5d 05 3e b7 1e 98 bd
       0.031177692 0.107212596 0.13024104 -0.074277334
000020 41 58 79 3d 25 76 48 3e 01 0b ce 3d 62 5a df 3d
       0.06087518 0.19576319 0.100606926 0.10905911
000030 b5 e2 24 be 57 13 1d 3e ff b4 2c 3d 44 79 20 3d
       -0.16102107 0.15339409 0.0421648 0.039178148
000040 54 88 4e 3e 38 e2 49 3c 44 f8 06 be e9 b8 d3 3d
       0.20169193 0.012322001 -0.13180643 0.10338003
000050 bd 10 58 3d f1 5e 05 3d e0 9a fa 3c 0d 3e 13 be
       0.052750338 0.032561246 0.030591428 -0.14379139
000060 64 35 20 be 23 46 77 3d cb 49 e7 bd 4a 45 cc 3d
       -0.15645367 0.060369622 -0.11293372 0.09974153
000070 ac 60 8c bd 66 34 28 3d 5a 5f 93 3c 5c a8 a6 3d
       -0.06854376 0.041065596 0.017989803 0.08137581
000080 6d d4 b5 3d a9 42 88 3d 3c 4f fb 3d 90 fb 9a bd
       0.088784076 0.066533394 0.12270972 -0.07567513
000090 75 cf f4 bd c9 ec 95 3d a4 57 34 3d 98 31 20 3e
       -0.11953632 0.07320554 0.044028893 0.15643919
0000a0 36 c0 5f 3c 11 fa 0a bd 8f 38 47 be 98 0c 0a 3e
       0.0136566665 -0.03392989 -0.19455169 0.13481367
0000b0 4b c9 47 be 2e 29 69 3d 79 99 23 3e 21 d3 70 bd
       -0.19510381 0.056924038 0.15976514 -0.0587951
0000c0 3a cf 41 3e b7 7b d6 bd 47 e1 11 3c 0e 4a a6 bd
       0.18926707 -0.104728155 0.008903808 -0.081195936
0000d0 07 1b a5 bd ca 99 34 3d fe 95 1f 3d 33 61 01 3e
       -0.08061796 0.044091977 0.038961403 0.12634735
0000e0 08 e9 23 3e 33 ab cd bd 2c fc 36 bd df 28 98 3d
       0.16006863 -0.10042419 -0.044674084 0.074296705
0000f0 f5 ce eb 3d 83 b2 9d 3a f5 a2 eb 3d 13 29 2a 3e
       0.11514083 0.001203135 0.11505691 0.16617231
000100 e6 7a 54 be d4 6c 10 be 02 73 a2 bd d7 d4 3c be
       -0.20750007 -0.14104015 -0.07932092 -0.18440567
000110 8c 2e fe 3d 40 22 4d bd 24 cb 0b 3e 9a 15 f6 bd
       0.12411222 -0.05008149 0.13651711 -0.12015839
000120 d1 7f c4 bb 7c 91 fc bd d4 50 a7 bc 2a f9 9b 3d
       -0.005996682 -0.123324364 -0.020424284 0.07615884
000130 d9 d3 8f 3d 20 fe a2 bc 18 d1 05 3e 4f 3e 50 bd
       0.070228286 -0.019896567 0.13068044 -0.050840672
000140 e3 0d cd bc
       -0.025031036

encoder.conv4.bias f4 [3]
000000 ed 1d 1b 3e 3a 43 01 be 87 5a ff 3c
       0.15148135 -0.12623301 0.031171096

decoder.conv1.weight f4 [3, 3, 3, 3]
000000 1e 7f 2d bd 04 05 37 3e 71 d9 50 bd b7 72 03 bc
       -0.042357557 0.17873007 -0.05098862 -0.008022956
000010 5c a5 af bd 71 18 f4 bd cd 5c f0 3d 30 19 b9 3d
       -0.08576462 -0.11918724 0.1173645 0.09038007
000020 46 7b 52 3d e8 7d 39 3e 24 69 29 3e dc ce 44 3d
       0.051387094 0.18114436 0.16544014 0.04804884
000030 0d 86 2b 3e c9 5c fb 3b 9d 00 ef bd a6 e1 dd 3d
       0.16750355 0.007670973 -0.11670039 0.10834055
000040 b8 62 0c 3e 7a b1 d1 3d c3 8c 89 bd 35 14 27 be
       0.13709533 0.10238929 -0.06716301 -0.16316302
000050 5d 1e 46 be 14 06 ca bd 7d 5c c7 bc 00 56 cf bc
       -0.1934752 -0.098644406 -0.024336094 -0.025309563
000060 64 65 04 be 51 1b fd 3d 09 8d 3d bd cb c4 c4 3d
       -0.12929302 0.12358726 -0.04627708 0.09607848
000070 ac ef 24 3e bf 99 00 be 54 b3 15 3e 26 50 9e 3d
       0.16107053 -0.1255865 0.1461919 0.07730131
000080 a7 3c 06 bd 2c f8 37 bd e6 b2 19 3e 24 06 d6 bd
       -0.032772686 -0.04491441 0.1500965 -0.1045039
000090 3a 22 4a be 21 37 00 3e fe b5 23 be f8 46 09 be
       -0.19739619 0.1252103 -0.15987393 -0.13405979
0000a0 cb d0 0e 3e c2 f0 e4 bc 01 23 5c be 81 03 c8 3c
       0.13946836 -0.027946834 -0.21497728 0.024415733
0000b0 e0 4d 5e bc f1 2c ec 3d 9a 6b 97 3d 51 19 d0 3c
       -0.013568372 0.115320094 0.0739357 0.025402697
0000c0 71 9a f5 bd 70 d3 89 bd 6e e4 91 bd 04 e6 25 3e
       -0.11992348 -0.06729782 -0.07123648 0.16201025
0000d0 bd 77 1a 3e 49 cd 03 3e ea 29 e8 3d 12 71 51 3d
       0.15084739 0.12871279 0.113361195 0.051133223
0000e0 1c a6 0c 3e 73 19 a1 bd 98 41 1a 3e f0 7c 35 3d
       0.1373524 -0.07866182 0.15064085 0.044308603
0000f0 e6 37 05 3c e9 c2 29 be 0b 56 11 3d a9 7a 04 3e
       0.008131003 -0.16578259 0.035482448 0.12937416
000100 a4 a9 02 3e 57 28 87 3b da 13 3d be 6d 28 00 3d
       0.12760025 0.004124682 -0.18464604 0.031288553
000110 6d 34 3e be d6 29 ca 3d bd 1b 16 be b8 2a b6 3c
       -0.18574686 0.09871261 -0.14659019 0.022237167
000120 b2 23 9c bd 2a 90 c5 3d 79 25 87 3d 6f 94 02 3d
       -0.07623996 0.09646638 0.06598944 0.03187984
000130 02 7b 0c 3e 7b 1a 11 be 2f 10 77 3d 32 28 f0 3d
       0.13718799 -0.14170258 0.06031817 0.11726417
000140 0d 2b a0 3b
       0.0048879446

decoder.conv1.bias f4 [3]
000000 78 88 59 3e dd b3 e4 bd 60 66 d5 3d
       0.21243465 -0.11167119 0.10419917

decoder.conv2.weight f4 [3, 3, 3, 3]
000000 63 ed ab bd 50 6d 7b 3c f8 df a9 3c 4a f8 1c 3e
       -0.08394887 0.015345886 0.02073668 0.1532909
000010 12 d9 14 3e d0 48 94 3d 7e ee 60 3d 63 b7 ae bd
       0.14535931 0.072404504 0.054914944 -0.08531072
000020 0a cb b3 bd 91 2c 8b bd 9d e7 0f be 28 b2 37 be
       -0.08778961 -0.0679561 -0.14053197 -0.17939055
000030 b9 79 ea 3d f8 52 08 be fa 62 0f 3c fb 0f 0f be
       0.11448998 -0.133129 0.008751625 -0.1397094
000040 56 51 43 bc 66 0f f8 3c 63 af c9 3d e1 a7 c5 bd
       -0.0119212475 0.03028078 0.098479055 -0.09651161
000050 ff ba 35 3e 71 d5 6d bd 50 5e 64 bd 7e e0 b9 3d
       0.17747115 -0.05806488 -0.055754006 0.090760216
000060 01 ee ec 3d d5 10 7d 3d 76 4f 27 be 1d de 2d 3d
       0.11568833 0.06178363 -0.16338906 0.04244815
000070 0b f3 e6 3d 45 f0 48 be f4 b9 66 bd 5f b4 a5 3d
       0.112768255 -0.19622906 -0.056329682 0.08091044
000080 7c 74 fb bd cb 5b 12 be 4c 0e 39 be d3 dd 4e be
       -0.12278077 -0.14292829 -0.1807186 -0.20201807
000090 81 aa 80 bd b9 84 22 be 93 de b9 3b 90 be 41 be
       -0.06282521 -0.15870942 0.005672285 -0.1892035
0000a0 6e 03 f0 bc d3 eb 84 bd 0e 77 d3 3d c4 45 42 be
       -0.02929851 -0.064902924 0.10325442 -0.18971926
0000b0 23 f4 7e bd f6 1d 0a 3d fb 15 f9 3d 74 ac 0a 3d
       -0.062244546 0.03371998 0.121623956 0.03385587
0000c0 01 b3 1b bd 2a 10 f2 bd d9 43 a1 3d 3f 74 a3 bd
       -0.03801251 -0.11819489 0.07874269 -0.079811566
0000d0 74 37 ed bc fd 13 0e be 86 94 8a 3d fb ec a5 ba
       -0.028957106 -0.13874812 0.0676661 -0.0012659127
0000e0 90 ec de 3d 44 f4 50 3e 90 52 ce bc 27 6c 02 be
       0.108849645 0.2040568 -0.025185853 -0.1273657
0000f0 57 ca d8 3d 24 f3 e7 bd d9 8e 35 be 1f 94 16 3e
       0.10585468 -0.11325672 -0.17730273 0.14704941
000100 cc 4c d1 3d 7f 2c ba bc 43 62 42 3e ab 86 1a 3d
       0.10219726 -0.022726296 0.18982796 0.037726086
000110 41 ea fc 3d b2 48 ad bd 3d 95 d7 3c 46 60 03 3e
       0.12349368 -0.08461131 0.02631628 0.12829694
000120 2a 03 fb bb 56 4b 79 3d c8 a0 14 bb 38 4f e7 bd
       -0.0076602893 0.06086286 -0.002267884 -0.11294407
000130 06 15 d9 ba 39 59 6b 3d 75 75 a6 3d f0 99 11 3e
       -0.0016562052 0.057458136 0.08127872 0.14218879
000140 ae 0b 0c be
       -0.1367633

decoder.conv2.bias f4 [3]
000000 21 c0 0f 3e 28 af eb bd bb 3f 06 be
       0.14038135 -0.11508018 -0.13110249

decoder.conv3.weight f4 [3, 3, 3, 3]
000000 df 07 a0 bc 03 38 25 3e b1 e0 4d bb a0 29 cd 3c
       -0.019535003 0.16134648 -0.0031414444 0.025044262
000010 40 27 93 3d 91 ca 74 3d 9f 76 99 bd e2 39 c9 bd
       0.07185221 0.059763495 -0.07493328 -0.098254934
000020 0e 70 b7 3d 04 7c 53 bd c8 cf 29 be 76 6b 05 be
       0.089569196 -0.051631942 -0.16583169 -0.13029274
000030 d9 48 22 3e 12 32 4c bc 3b 92 0f 3e 5d e9 5c be
       0.15848102 -0.01246311 0.14020626 -0.21573396
000040 0a a4 93 3d ed de f4 bc 44 7a 0f 3d 00 87 0d 3e
       0.07209022 -0.029891456 0.03502871 0.1382103
000050 8d 70 e4 3d 41 7b 6c 3d a9 87 d2 3c 60 c2 90 3d
       0.1115428 0.05773473 0.025699453 0.07068324
000060 98 11 e4 3d d5 d4 a0 bd 97 a5 19 3e 43 d1 35 3c
       0.11136168 -0.078530945 0.15004574 0.011097255
000070 dc 4b 0a be 61 53 d4 3d 51 68 e0 3d dc 59 47 be
       -0.135055 0.10367466 0.10957397 -0.19467872
000080 09 60 1c 3e ce 47 08 be c0 a1 82 bd 19 ee 04 be
       0.1527101 -0.13308641 -0.063785076 -0.12981452
000090 6f b1 21 3e 20 c0 12 be ed a2 0d 3e 86 f2 3f 3e
       0.15790342 -0.14331102 0.13831683 0.18744859
0000a0 4a c5 4d 3e dc a3 a3 ba 2f bd 36 3e 9b b3 4c bd
       0.20094791 -0.0012484747 0.17845605 -0.049975973
0000b0 0a 16 1a 3e 6f ae 58 3e 20 66 7f 3d cc b7 03 3e
       0.1504747 0.21160291 0.062353253 0.12863082
0000c0 bc d9 98 bd 03 bd d5 bb 0b b2 b3 bd 40 94 88 3c
       -0.074634045 -0.006522776 -0.087741934 0.016672254
0000d0 af 0f ad bd a6 cd 14 3e 7e 8f 90 3d 99 b2 d5 3c
       -0.08450257 0.14531574 0.07058619 0.026086139
0000e0 e5 15 0a 3e 74 4b e9 3d 72 d8 8c 3d 9e 65 00 bd
       0.13484915 0.11391345 0.06877221 -0.03134691
0000f0 9b 30 91 3d f8 2a 7b 3c 2c 6e 86 3d 3f 2b 52 3d
       0.07089349 0.015330069 0.06563982 0.051310774
000100 74 ea 08 3e b0 29 2c be 1f 4f a6 3d f9 02 8d 3d
       0.13370687 -0.16812778 0.0812056 0.068853326
000110 fe 80 98 3d ef 9d ed 3c 2c 05 39 bd d7 fe 25 3e
       0.07446478 0.029005973 -0.045170948 0.16210495
000120 99 5a 22 3d b4 e0 49 3e ec 6b a3 bd f8 a5 3f bd
       0.039637182 0.19714624 -0.07979569 -0.04678914
000130 02 18 71 3d f8 34 01 3d be 2a 22 3e a6 6e 8b bd
       0.058860786 0.031544656 0.15836617 -0.06808214
000140 6b fb d0 bd
       -0.10204204

decoder.conv3.bias f4 [3]
000000 87 a4 50 3e d1 bd 15 3d 3b 13 39 be
       0.20375262 0.036557976 -0.18073742

decoder.conv4.weight f4 [3, 3, 3, 3]
000000 f8 aa 32 bd 41 15 c4 3d 75 d8 fe bd de b8 27 3e
       -0.04362008 0.09574366 -0.1244363 0.16379115
000010 c0 b2 3d 3e 6b 05 5d bd c2 ec 09 3e 99 85 4d 3e
       0.18525219 -0.053960245 0.13469222 0.20070495
000020 94 80 6a bd 2a 2b 0a 3d 43 83 07 bd 53 29 24 be
       -0.057251528 0.03373257 -0.033084165 -0.16031389
000030 c0 cd 29 3e e2 46 8c 3d 6a fd 86 bd ec 00 20 3e
       0.16582394 0.06849457 -0.06591304 0.15625352
000040 de 69 a9 3c 97 95 ca 3b 3f a3 ef bd 71 90 17 3e
       0.020680364 0.0061823833 -0.117010586 0.14801194
000050 30 d9 19 bd 8f 97 a3 3d e6 da 80 ba ee c2 1d 3e
       -0.03756064 0.07987892 -0.0009830862 0.15406391
000060 65 9e 1b 3e 35 ff 4a 3d af 5f bc bd 6f 4e f9 3d
       0.15197141 0.04955979 -0.09197938 0.12173163
000070 23 1e 51 be 98 a5 75 bd fe 70 40 be a1 62 37 3d
       -0.20421652 -0.059972376 -0.18793103 0.044771794
000080 43 ec 4d be 68 2b 33 be 17 3d 23 be 40 b9 00 3e
       -0.20109658 -0.17497027 -0.15941273 0.12570667
000090 e8 83 0e 3e a3 66 13 be e4 8c c8 3d 17 e7 ec bd
       0.13917506 -0.14394622 0.09792498 -0.115675144
0000a0 b1 d8 31 be 69 a1 6f bd f3 a9 4b be 3c fe aa 3d
       -0.17367817 -0.058503542 -0.19889049 0.083492726
0000b0 cc e3 38 be cf 3d 55 be 3d 9c ed bd e1 ed 56 be
       -0.18055648 -0.2082436 -0.11602066 -0.20989181
0000c0 4d f3 2e bd 6c 80 d4 3d 47 a6 49 be 1f c0 0d 3d
       -0.0427125 0.10376057 -0.19692336 0.03460705
0000d0 56 46 09 be b1 d4 a2 3d ca 60 c8 bd 0c 2b e5 ba
       -0.13405737 0.07950724 -0.09784086 -0.0017484142
0000e0 f0 53 9c 3c 0d 9f 2a bd 92 55 07 be 2d 25 98 3c
       0.019082993 -0.04165559 -0.13216236 0.018572414
0000f0 b9 70 7b bc cb 38 9e 3c e6 5e 1f bd 4c eb 13 3e
       -0.015346699 0.01931419 -0.03890886 0.14445227
000100 01 86 18 be da 71 91 3d 75 a0 eb bd 7c 88 62 bd
       -0.14894868 0.071017936 -0.11505214 -0.055305943
000110 f3 db c0 bd aa 3a 94 bb 03 b3 4a be 5a e4 12 be
       -0.09416952 -0.004523595 -0.1979485 -0.14344922
000120 91 84 24 3e 09 40 b8 bd b4 18 2f be 70 b1 14 3e
       0.16066195 -0.08996589 -0.17099267 0.14520812
000130 eb 1c 5d 3d 07 9f 1d be 44 ea cc 3d 9a 71 dd bd
       0.053982656 -0.15392695 0.1000562 -0.108126834
000140 af b0 35 3d
       0.04435795

decoder.conv4.bias f4 [3]
000000 bb 17 bc bc e9 a1 87 3c a7 4b 5e 3e
       -0.022960534 0.016556697 0.21708547
