AE-mark-1/model.pt (torch, 11061 bytes, 16 tensors)

weight f4 [3, 3, 3, 3]
000000 b6 0a 58 be 6c a4 0b be 64 87 32 be 77 89 d8 bd
       -0.21097836 -0.1363694 -0.1743446 -0.10573094
000010 16 08 14 3e 24 c4 f1 bd cf 5d 1e bd f4 c5 cb bc
       0.1445621 -0.11804989 -0.03866368 -0.024874665
000020 5e 2f 40 bd 01 75 92 bd 95 1d 26 3d eb 0d d7 bb
       -0.046920173 -0.07151223 0.040555555 -0.0065629384
000030 cf 15 b0 3d 75 38 58 be 25 06 29 be fe 3d 9c bd
       0.0859791 -0.21115287 -0.1650625 -0.076290116
000040 d9 7b c0 3d 19 ab d0 3d ed 6b 00 bd 02 f7 d9 3d
       0.09398622 0.10188884 -0.031352926 0.10642816
000050 00 6e 87 3d b1 f1 47 be ee 85 5e be 10 20 fa bc
       0.06612778 -0.19525792 -0.21730778 -0.030532867
000060 1b cf 59 be 1c 74 98 3d 48 0a 18 bb 9a 77 d3 bd
       -0.2127041 0.07444021 -0.0023199487 -0.103255466
000070 fc a3 15 3d 94 4b cf 3d 42 b4 fd bc 15 5e c7 3c
       0.03653334 0.10121837 -0.030969743 0.024336854
000080 3e d4 09 be a7 94 6e bd 18 e7 6c 3c 42 6f 32 3e
       -0.1345987 -0.058247235 0.014459394 0.17425254
000090 7e ba b3 bb bd cc 3e 3e 71 2a e9 3d 39 6b c1 3d
       -0.005484878 0.18632789 0.11385048 0.09444279
0000a0 88 0f b6 bd a0 61 ed bd bf 05 90 3d f9 d2 83 3d
       -0.08889681 -0.11590886 0.07032346 0.06436724
0000b0 12 e3 b2 3c 6f 26 06 be c9 fe 64 bd db d1 93 bd
       0.021836791 -0.13100599 -0.055907045 -0.07217761
0000c0 33 db 94 3d 61 af 0b 3e e7 01 25 3e ef ba d7 bd
       0.072683714 0.1364112 0.16114007 -0.10533702
0000d0 af 18 b9 3c 17 a7 be 3a e4 77 44 bd cf 80 d1 3b
       0.022594778 0.0014545646 -0.0479659 0.006393529
0000e0 53 24 c6 3b aa a3 58 3d 20 2d 98 3c 23 d8 bd 3d
       0.0060468107 0.052890457 0.018576205 0.092697404
0000f0 1b 72 08 bc 6d 6c 00 3e 88 92 10 3e b6 6c 2a 3e
       -0.008327986 0.12541361 0.14118397 0.16643032
000100 eb ee 28 bd 99 7b 67 3d fd 68 45 3d 6b fd 12 be
       -0.041243475 0.056514356 0.048195828 -0.14354484
000110 52 86 bf 3d 01 94 45 3e d4 6e 8d bd 1f f7 c5 3d
       0.093517914 0.1929474 -0.069059044 0.09666275
000120 6d 2a 06 be 14 49 a4 bd 68 4d 9c 3d b7 38 f3 3d
       -0.13102122 -0.08021751 0.076319516 0.11876052
000130 d1 1f 11 bd f1 db 31 bd 53 7b da bd 5a a3 6d bb
       -0.035430733 -0.043422643 -0.106680535 -0.0036260695
000140 20 25 bb 3d
       0.091379404

bias f4 [3]
000000 a8 33 ca 3c 01 c4 07 3e 9b cb 92 bd
       0.024682835 0.13258363 -0.07167741

weight f4 [3, 3, 3, 3]
000000 32 d8 1c 3e d0 83 01 3e ec e1 17 be 00 22 a0 bc
       0.15316847 0.12647939 -0.14832276 -0.019547462
000010 9d 48 0d be 73 97 6c 3d ec 38 67 3d 31 5f 8d bd
       -0.13797231 0.05776162 0.05645077 -0.06902922
000020 b7 b9 ca bc 14 b4 28 3e da aa 89 3d 92 d1 15 3d
       -0.024746759 0.16474944 0.067220405 0.036576815
000030 5c f6 80 3d 81 b7 3f 3d cf 18 ec 3c 0d 3b d3 3d
       0.06296989 0.046805862 0.028820423 0.103139974
000040 88 aa 40 bd 3f 35 53 3e b1 13 a7 3d 55 94 1c be
       -0.04703763 0.2062578 0.08158053 -0.15290959
000050 70 11 3c be b4 a9 f1 3d 1b 22 d4 bd d7 a1 69 3d
       -0.18366027 0.117999464 -0.103580676 0.057039108
000060 61 ff 8f bb 46 18 df 3b 38 ba 00 3e 96 9c 53 be
       -0.004394457 0.0068083135 0.12571037 -0.20665202
000070 da 69 9b 3b 54 f0 2f bd 78 51 bb bd 7a 13 d6 bd
       0.004742843 -0.042953804 -0.09146398 -0.104529336
000080 4f 2a 8d bd cf 99 cf bd be 46 51 bd 20 e0 d2 bd
       -0.06892835 -0.101367585 -0.051092856 -0.10296655
000090 fb 18 47 3e 0c ee 08 3e d8 20 0a 3d 18 55 fb bc
       0.19443123 0.13372058 0.03372273 -0.030680224
0000a0 c1 64 e2 bb 15 bc b5 3b 33 8c ab bd 77 5c eb bd
       -0.0069089835 0.0055461028 -0.0837635 -0.11492246
0000b0 58 8d 1d bd c9 e6 2a be 7f a1 9c 3d 47 31 58 3d
       -0.038464874 -0.166896 0.076479904 0.05278137
0000c0 c4 18 2e 3e 19 e9 3d 3e a2 c7 30 3e db 29 3d 3e
       0.17001635 0.18545951 0.17263654 0.18472998
0000d0 9f 74 25 bd 93 bb c3 bd c3 e3 4a bd 40 d6 47 3e
       -0.04039442 -0.09557261 -0.049533617 0.19515324
0000e0 86 23 a3 bc 9c 82 84 3c 7f f3 03 bd fa bd 8d bd
       -0.0199144 0.01617556 -0.032214638 -0.06921001
0000f0 75 cf 55 bd 29 5b b9 3c 78 86 f1 3d 41 a3 d4 3d
       -0.0521998 0.022626476 0.11793226 0.10382701
000100 a3 f5 4f bd b2 a4 de bd 52 ac 18 3e ae 70 a8 bd
       -0.050771367 -0.10871257 0.14909485 -0.08224617
000110 e8 77 e4 3c f0 dc b9 bd f1 e0 d2 bd 80 9e 9b bc
       0.027889207 -0.090753436 -0.102968104 -0.018996477
000120 31 c2 3d 3d f4 fa 08 3d 93 f4 4c be a4 43 a6 3d
       0.046327773 0.033442453 -0.20015173 0.0811837
000130 7b 13 44 be 32 73 2c be 9f 4f bc bd 5e f1 4c bc
       -0.19148056 -0.16840819 -0.09194874 -0.012508718
000140 08 59 0d 3e
       0.13803494

bias f4 [3]
000000 7e f1 98 bd d9 c1 25 be f3 b5 70 3d
       -0.07467936 -0.16187228 0.05876727

weight f4 [3, 3, 3, 3]
000000 10 f3 80 3d 6a 54 b2 3d 7f 1f 1a bc 14 9b 3e bc
       0.062963605 0.08707507 -0.009406923 -0.011633653
000010 28 a5 b6 bd 46 1e 1d 3e f3 81 24 be 70 07 b8 3b
       -0.0891822 0.1534358 -0.16065197 0.005616121
000020 fe e8 d3 bc b8 94 02 be e6 9b 1c be 15 f2 a4 b9
       -0.025867935 -0.12752044 -0.15293846 -0.00031460883
000030 7c e3 75 bd 2f 67 23 be b4 39 28 3d 54 c7 4b be
       -0.0600314 -0.1595733 0.041070655 -0.19900256
000040 f2 47 23 3e aa f0 da 3d cc 99 29 be ed 83 1b 3e
       0.15945414 0.10690434 -0.16562575 0.15187044
000050 a9 55 32 be aa fc e7 3c 4b b2 92 3d ff 5d 2c bd
       -0.1741549 0.028318722 0.07162913 -0.04208183
000060 d2 3d 1a 3d 39 40 45 3e 93 ae cd 3c 1f a8 78 3d
       0.037656613 0.1926278 0.025107658 0.060707208
000070 3e c6 ca bd 43 57 d9 bd 33 8c e1 bd 51 f0 15 3e
       -0.09901093 -0.10612347 -0.11013069 0.14642455
000080 46 54 07 be 2a f9 b2 bd 45 55 df 3d 61 ec d7 3c
       -0.13215742 -0.087389305 0.10904936 0.026357831
000090 95 26 b8 bd 98 f7 f7 3d 8e 80 10 be 4c 8d 58 bd
       -0.08991734 0.12107772 -0.1411154 -0.052869126
0000a0 14 b5 24 be 7a d3 0b 3e 22 df 23 be 10 bf 20 3d
       -0.16084701 0.1365489 -0.16003087 0.03924471
0000b0 14 17 be 3d a1 02 0b 3e a9 4c 11 3e 02 a2 cc bc
       0.092817456 0.13575222 0.141894 -0.024979595
0000c0 c2 f8 0f 3e 82 0a 0d 3e c2 07 7b 3d 34 d5 20 3e
       0.14059737 0.1377354 0.061286695 0.1570633
0000d0 13 a5 b4 bd e5 53 4d 3e a3 c8 0a 3d 35 b8 e4 bd
       -0.08820548 0.20051534 0.03388275 -0.11167947
0000e0 6f 49 9a 3d 16 ca a6 3d 20 59 07 be fc 71 1b 3e
       0.075335376 0.081440136 -0.13217592 0.151802
0000f0 76 c9 20 be 73 bf 35 be 34 18 c2 bc e2 3c e8 bd
       -0.15701851 -0.17748813 -0.023693182 -0.113397375
000100 ea 21 8d 3d b9 02 a8 bc 4a e3 51 be 34 98 24 be
       0.06891234 -0.02050911 -0.2049686 -0.16073686
000110 cd 7e 14 be aa 3c 1d be 72 ca 43 be 95 b5 db 3c
       -0.14501496 -0.15355173 -0.19120196 0.026819983
000120 e7 5c 0b 3e 73 db 43 3d e0 61 4a 3c 41 03 e7 3d
       0.13609658 0.047816705 0.012352437 0.112799175
000130 02 74 31 be 42 80 20 3e a8 6f 27 3e 19 ba af 3d
       -0.1732941 0.15673926 0.16351187 0.08580417
000140 f1 aa d3 bd
       -0.10335339

bias f4 [3]
000000 47 e0 c7 bd a3 b1 55 3b 2c 08 94 3c
       -0.097595744 0.00326071 0.018070303

weight f4 [3, 3, 3, 3]
000000 99 9c 97 3b 3c 88 2e bb bd 84 c5 bd a7 7f 23 be
       0.004626822 -0.0026631495 -0.096444584 -0.15966664
000010 2d 6e 83 3b 34 94 e5 bd 0c bf 08 3c 10 00 1b be
       0.0040109367 -0.11209908 0.00834633 -0.15136743
000020 47 84 28 be ab 00 bc bd 47 46 94 bd d1 c2 01 3d
       -0.1645671 -0.09179815 -0.07239967 0.031679932
000030 0e 28 2d 3e 8e f0 04 bd 5a ee c8 bc cd c1 e7 3c
       0.16909811 -0.032455973 -0.024527717 0.028290654
000040 79 c2 cd bd 0b c1 35 be 7c c9 8a bd ae 92 97 bd
       -0.10046858 -0.17749421 -0.06776711 -0.07401024
000050 65 67 39 bd bb f3 22 3e 46 5d 6f bc 13 f9 1a bd
       -0.04526462 0.15913288 -0.01460964 -0.037835192
000060 14 96 2f 3e c6 70 08 3e 7b 4b 0a 3e 98 cd ab 3d
       0.17147094 0.1332427 0.13505356 0.08388823
000070 dd 99 ba bc 6d 75 11 be 2e ed 47 be 4c 7e 0b be
       -0.022778446 -0.1420495 -0.1952407 -0.13622397
000080 62 62 43 be 95 13 7a bd 61 4a 67 bd 60 11 5c bd
       -0.19080499 -0.06105383 -0.056467418 -0.053727508
000090 f7 ae 02 3e 81 e2 20 be ad 20 cc 39 aa 41 96 bd
       0.12762056 -0.15711404 0.00038934257 -0.07336743
0000a0 c1 f9 69 3d fe c0 18 be 05 9d db 3d 0a c1 4b bd
       0.05712295 -0.1491737 0.107233085 -0.049744643
0000b0 9b 08 80 3d 33 6b 24 3e 48 a4 16 be 35 ed 0d be
       0.06251641 0.16056518 -0.14711106 -0.13860019
0000c0 77 8a f0 bd 75 c5 1a 3e f4 3e e1 bd 81 79 81 bd
       -0.1174516 0.15114386 -0.109983355 -0.06322003
0000d0 d5 27 82 3c 80 c0 0d be 73 b3 7d bd 5e e2 71 bd
       0.015888134 -0.13842964 -0.061938714 -0.05905377
0000e0 4e a2 49 3c 38 d9 b9 bb b8 4c 13 3e 98 82 34 bd
       0.012306763 -0.0056716464 0.14384735 -0.044069856
0000f0 b6 a3 5f bd 1f 60 b7 3d 08 f5 e5 bd 36 a5 3e be
       -0.054599486 0.089538805 -0.112283766 -0.1861771
000100 0c 47 1f be 1b 99 03 3e 2a 3d 3c be 5f ab 4d bc
       -0.15554446 0.12851374 -0.18382707 -0.012553065
000110 f9 c7 47 bd 6b 3c 1a 3e 72 c2 6d bd a2 84 0e 3e
       -0.048774693 0.1506211 -0.058046766 0.13917783
000120 d2 6f 39 be 77 01 2a 3e 97 a1 12 3d 90 6c c7 3d
       -0.18109062 0.16602121 0.035798635 0.097375035
000130 54 80 16 bd 8a 1f 1b be e0 b4 3f bc d4 b8 ce 3d
       -0.036743477 -0.1514875 -0.011700839 0.10093847
000140 b0 bc 29 be
       -0.16575885

bias f4 [3]
000000 4c 1a 51 3d 03 a3 c3 3d a8 14 b5 3d
       0.05105047 0.095525764 0.088418305

weight f4 [3, 3, 3, 3]
000000 b9 d9 f6 bd 87 0d 22 bd 95 4e 84 3c 54 7a 76 bd
       -0.12053246 -0.039563682 0.016150752 -0.060175255
000010 ac 22 3e 3d e6 e2 45 be 3c d9 28 be 94 f3 19 be
       0.046419784 -0.19324836 -0.16489118 -0.15034324
000020 89 9d 9c 3d 73 99 b1 bd 3a d6 48 3e 6b 43 3f 3e
       0.07647235 -0.08671846 0.19612971 0.18678062
000030 af d2 8e bc 86 18 2d 3e ef c3 2f bd 3f 40 88 bd
       -0.017434446 0.16903886 -0.042911466 -0.06652879
000040 f4 55 10 3e f8 6b 6e 3c e6 e5 a5 bd d9 4b 2a 3e
       0.14095289 0.014552109 -0.0810049 0.16630496
000050 8f ff a0 3c 92 10 08 be f9 2a c3 bd 91 df 91 bd
       0.01965311 -0.13287571 -0.09529681 -0.0712272
000060 a6 d5 fc 3d c3 a2 e9 bd 4d b6 8b bd 0b d6 c3 3d
       0.12345438 -0.114079975 -0.068218805 0.0956231
000070 38 4f ec bd 62 ae 08 be df 97 2b be ab 2d 3a 3d
       -0.11538547 -0.13347772 -0.16757153 0.04545371
000080 fc a4 04 be fe 75 06 3e ae e1 ee 3c a3 84 26 be
       -0.12953562 0.13130948 0.029160347 -0.16261534
000090 3b 92 39 3e 49 6b 4c 3e 96 62 5a 3e ef b5 22 be
       0.18122189 0.19962801 0.2132667 -0.15889715
0000a0 47 d3 b5 3d a4 4f d8 bd 0d 67 9f ba a1 c1 a6 3c
       0.088781886 -0.10562065 -0.0012161449 0.020356001
0000b0 13 71 6e 3d aa 73 ea bc c1 ff 1a 3e a4 3a ed bc
       0.058213305 -0.028619606 0.15136625 -0.028958626
0000c0 1f 2e b8 3d 5b e5 5b 3e c4 5b 01 3e ef 4f 4e 3e
       0.08993172 0.21474211 0.12632662 0.2014768
0000d0 8a 3e 3c 3e b2 cc 37 3d ee b4 e2 3d ab b0 2e 3e
       0.18383232 0.044872947 0.11069666 0.17059581
0000e0 a9 4e c1 3d a8 b0 6b bc 90 d8 b8 bd 2e 6b 0b be
       0.09438831 -0.01438538 -0.09025681 -0.13615105
0000f0 bf f3 61 bd 4f 2a 9f bb 8b 6d 1d 3d e8 49 5f 3c
       -0.055164095 -0.0048573385 0.038434546 0.0136284605
000100 bb 41 24 3d 5f 01 1f 3e f6 64 a2 3d 83 57 86 bc
       0.040101748 0.15527867 0.07929413 -0.01639915
000110 99 9b 2e 3e 22 30 36 3d b0 75 c1 b9 fb 38 d1 bc
       0.17051543 0.044479497 -0.00036899513 -0.025539866
000120 3c a4 0f 3e 09 ce 4d 3e b4 f9 ce bc 1f 32 ea 3d
       0.14027494 0.20098127 -0.025265552 0.11435341
000130 6f 18 f8 3c e8 96 0b bd 74 62 0d be c9 46 3a bd
       0.030285088 -0.034079462 -0.13807088 -0.045477662
000140 f5 a9 50 3e
       0.20377333

bias f4 [3]
000000 f7 30 b9 3c 51 d4 34 3e c6 e2 0c 3e
       0.022606356 0.17659117 0.13758382

weight f4 [3, 3, 3, 3]
000000 c1 04 f6 bd 96 6d 09 3e cb bf 81 3d 2c 10 c7 bd
       -0.120126255 0.1342071 0.0633541 -0.097198814
000010 e9 c0 8e bd f8 8d c5 bc 62 ec e5 3d cf f8 f6 bd
       -0.069703884 -0.024115548 0.11226727 -0.12059175
000020 ce 34 0e 3e b0 df b1 3d 10 f5 44 be 82 50 d2 bd
       0.13887331 0.08685243 -0.19234109 -0.10269262
000030 b6 4f 05 bd ff 82 98 3d 0b 44 f9 3d 16 00 98 3d
       -0.03254672 0.074468605 0.12171181 0.074218914
000040 b7 55 30 be 50 5f 3a be 2a 20 6e bd 8c dd 4f bc
       -0.17220198 -0.18200421 -0.058136143 -0.012687098
000050 43 10 4e 3e 2a d6 9a bd ed 65 0f 3e 51 79 ff 3c
       0.20123391 -0.0756038 0.14003725 0.031185778
000060 f0 b8 0b be 8d 7c 98 3d bc 3c 0e bc a3 7a c9 bd
       -0.13644767 0.07445631 -0.008681472 -0.09837844
000070 e8 04 3a bd 2e 4a 24 be 18 22 52 bd 47 33 29 3d
       -0.045414835 -0.16043922 -0.051302046 0.041308668
000080 2f ec a5 bd 6f 87 91 bd 11 d0 87 3b 80 00 97 bd
       -0.08101689 -0.0710591 0.0041446765 -0.07373142
000090 2f fe 93 3d 77 ea 17 bc 22 55 56 3e 54 95 68 bc
       0.07226216 -0.009272209 0.20930913 -0.014195759
0000a0 10 e6 0c be 48 21 56 3e 20 71 18 3d a0 96 db 3c
       -0.13759637 0.20911133 0.03721726 0.026805222
0000b0 07 61 84 bd 0d 14 48 3c 37 e1 ea bd ed 82 15 bd
       -0.06463819 0.012211812 -0.114687376 -0.036501814
0000c0 0f b8 85 3c 01 8e a5 3d d2 62 48 be 47 ff 9e 3d
       0.016323118 0.08083726 -0.19568947 0.07763534
0000d0 39 33 5c 3d 93 69 f1 3d 21 c1 b8 3d c3 ae e0 3d
       0.053759787 0.11787715 0.090212114 0.10970833
0000e0 2a a9 ed bd 22 28 3a be a9 34 45 be b7 32 88 3d
       -0.11604531 -0.18179372 -0.1925837 0.06650298
0000f0 75 0e b0 bd 75 7d 2c bd 0c b0 d7 3d ca 9c 08 bc
       -0.085965075 -0.042111833 0.10531625 -0.008338163
000100 4b 2e d8 3d 5f 22 78 3d 4d e4 13 3e b8 1b 5e 3d
       0.10555705 0.060579654 0.14442559 0.054225653
000110 e2 64 59 3e 79 3c 1d 3e 3a 82 ed 3d e8 05 d0 3d
       0.2122989 0.153551 0.11597104 0.101573765
000120 c4 65 06 be b5 21 17 3d 34 7b e0 3d 70 1b 1a bd
       -0.13124758 0.03689738 0.10960999 -0.037623823
000130 bf 1b 85 3d ae ac 80 bd 4a aa b0 3d 74 51 21 be
       0.06499433 -0.06282936 0.0862623 -0.15753728
000140 67 3d 8b 3d
       0.06798821

bias f4 [3]
000000 90 67 cc bc ac ff 0c 3e 1a be 48 be
       -0.024951726 0.13769406 -0.19603768

weight f4 [3, 3, 3, 3]
000000 bd 1d 0b 3e 3c aa 42 bd 30 45 a1 ba 12 ed 03 be
       0.13585563 -0.04752563 -0.0012303945 -0.12883404
000010 ae 67 06 3e a6 f3 1f 3e da 23 9c bd 91 ba f1 3d
       0.13125488 0.15620288 -0.07624026 0.11803163
000020 9d ab d6 bd bb 79 a4 3d c8 11 6e be b4 67 00 be
       -0.104819514 0.08031031 -0.2324897 -0.1253956
000030 ad 0a 37 3d 17 7f 92 3d 21 8c e4 bd 98 01 1b be
       0.044687916 0.07153147 -0.1115954 -0.15137327
000040 0a 1d 0b 3e 36 ca d8 bd 4e 6d 37 3e 33 8a 9f 3b
       0.13585296 -0.10585444 0.1791279 0.0048687696
000050 e9 10 69 bd 26 2c f2 bc 39 32 5c 3d c9 0c aa 3d
       -0.056900892 -0.029562067 0.053758834 0.0830322
000060 fd 45 be 3d f1 31 3a bc 06 7a 87 bc 8e 1d 12 be
       0.09290693 -0.011364446 -0.016537677 -0.14269087
000070 33 8e 5c bd 19 f5 82 3d 11 c8 d9 bd af 5c 22 3e
       -0.05384655 0.06394405 -0.10633863 0.15855668
000080 18 79 73 b9 c6 a7 48 3d c4 72 11 3e 29 44 ca 3d
       -0.00023219397 0.048988126 0.14203936 0.09876282
000090 20 b4 b6 bc 3d 40 5b 3d e0 3c 9e bd 61 03 10 be
       -0.022302687 0.05352806 -0.07726455 -0.14063789
0000a0 e1 a7 f9 bd 78 78 0c 3d cb 34 5c 3e 75 da 06 3e
       -0.121902235 0.034294575 0.21504514 0.13169272
0000b0 25 a2 f5 3d 33 de c4 bd 74 3c aa 3d 28 f1 64 bd
       0.11993817 -0.09612694 0.08312312 -0.055894047
0000c0 86 db 72 3d fd 74 3e be 57 29 39 be c1 2b f7 bd
       0.059291385 -0.18599315 -0.18082176 -0.12068892
0000d0 d9 2b f8 bd 36 48 d6 3c ca 69 34 3e db 2b 0a be
       -0.12117738 0.02615748 0.1761848 -0.13493292
0000e0 ed 43 4d bd 15 7f f4 bd 93 42 29 be f7 ba 3b bc
       -0.050113607 -0.119383015 -0.16529302 -0.01145815
0000f0 cf ef bd 3d 85 91 87 3d 36 83 87 3d b1 19 8e bd
       0.092742555 0.066195525 0.066168234 -0.06938494
000100 5a 4a 88 3c 4d 5f f3 3c 7f 9e 93 3d be ad 13 be
       0.016637016 0.029708529 0.07207965 -0.14421746
000110 7e a5 01 be 72 58 a2 3b b2 9b 04 3e dc a2 f9 3d
       -0.12660787 0.004954391 0.12950018 0.12189266
000120 ef af c1 bd a1 65 25 3e 87 96 5b 3e 59 6a 72 3d
       -0.09457385 0.1615205 0.2144414 0.059183452
000130 fe 5d ad bd 98 dc da bb 13 36 53 3d d6 db 2b 3e
       -0.08465193 -0.006679129 0.05156524 0.1678308
000140 58 14 b2 bd
       -0.086952865

bias f4 [3]
000000 23 6d 3a be 3a 78 84 3d b6 77 d2 bc
       -0.18205695 0.06468244 -0.025691848

weight f4 [3, 3, 3, 3]
000000 ad 35 e6 3c 20 82 1c bc 50 59 3d be 67 bb 24 3e
       0.028101766 -0.009552509 -0.18491101 0.16087113
000010 e4 15 bf bd 40 50 29 3e 5f af 16 3e ff 39 29 be
       -0.09330347 0.16534519 0.14715336 -0.1652603
000020 da b7 7e bc e9 c1 e3 bc 13 eb bf 3d a5 5c 3b 3d
       -0.015546763 -0.027802425 0.09371009 0.04574265
000030 64 2e 96 3b 81 d7 47 be ea 0f 2d be 69 03 e0 bd
       0.004583167 -0.19515802 -0.16900602 -0.109381504
000040 86 b1 b3 bd c7 f2 63 bc d5 2e 0e be 22 5b a8 3d
       -0.08774094 -0.013912863 -0.13885053 0.08220507
000050 0d c9 d7 3d 29 6b b8 bd d3 c4 20 3d c1 8c 23 bc
       0.10536394 -0.09004814 0.039250206 -0.009982289
000060 73 48 ff bd b3 be 20 3d 06 a5 36 3d 15 c4 dc 3c
       -0.124649905 0.039244365 0.044590972 0.026948968
000070 ba 57 da bd 7f 51 bc 3d 42 7b 29 be d9 21 db bd
       -0.10661264 0.09195232 -0.16550925 -0.10699815
000080 78 59 37 be a9 66 11 3e 9f 4c 7d 3d d5 5a c1 3d
       -0.17905223 0.14199318 0.06184065 0.09441153
000090 73 8c cb 3d cc 8c 0f be 95 c9 ce 3c a5 d0 d8 3d
       0.09938898 -0.14018553 0.025242606 0.10586671
0000a0 69 1b a4 bd f3 cc 03 3c 04 0e 99 3d e6 45 44 bd
       -0.080130406 0.008044469 0.074733764 -0.047918223
0000b0 b5 41 e2 3d 9b 4b 25 be 46 e1 8a 3c d2 0a 35 3e
       0.11047689 -0.16142122 0.016953122 0.17679909
0000c0 72 9f 76 3d 0a 97 97 3d 14 a9 9a bc 91 19 13 3e
       0.060210653 0.07401855 -0.01887945 0.14365222
0000d0 47 f7 95 bc 16 4b 31 3e 8a 50 bc bd f7 2c 39 be
       -0.018306388 0.173138 -0.09195049 -0.18083559
0000e0 2a 64 86 3d 67 4d a9 3d 98 20 ff 3a 6b 53 33 be
       0.065620735 0.082667165 0.001946467 -0.1751229
0000f0 db 01 47 be 51 3a c0 bb 8b d8 bd bd ec 7b ef 3b
       -0.19434302 -0.005866327 -0.09269818 0.007308474
000100 7f 5a 8a 3d 2a aa 31 be 8e 60 47 be f5 87 d2 3c
       0.06755542 -0.17350069 -0.19470426 0.025699595
000110 54 45 4f 3c 26 23 51 be 6c 2b 17 be 3e ef 08 bd
       0.012650806 -0.20423564 -0.14762658 -0.033431284
000120 f3 f5 14 be ea 8d 13 3e 57 3c 21 be 1b b9 c6 3c
       -0.14546947 0.14409605 -0.15745674 0.024258187
000130 71 d0 73 be 16 91 8e 3d bc 24 0a be bc 41 b2 bc
       -0.23809983 0.06961267 -0.13490576 -0.02175986
000140 b1 9d c9 3d
       0.098445304

bias f4 [3]
000000 ae bb 2e 3e cb a4 93 bd 4c 63 d4 3d
       0.17063782 -0.07209166 0.10370502
